…
__________________________________________________________________________________________________
 Layer (type)                   Output Shape         Param #     Connected to                     
==================================================================================================
 input_1 (InputLayer)           [(None, 100, 100, 1  0           []                               
                                )]                                                                
                                                                                                  
 concatenate (Concatenate)      (None, 100, 100, 3)  0           ['input_1[0][0]',                
                                                                  'input_1[0][0]',                
                                                                  'input_1[0][0]']                
                                                                                                  
 zero_padding2d (ZeroPadding2D)  (None, 106, 106, 3)  0          ['concatenate[0][0]']            
                                                                                                  
 conv1/conv (Conv2D)            (None, 50, 50, 64)   9408        ['zero_padding2d[0][0]']         
                                                                                                  
 conv1/bn (BatchNormalization)  (None, 50, 50, 64)   256         ['conv1/conv[0][0]']             
                                                                                                  
 conv1/relu (Activation)        (None, 50, 50, 64)   0           ['conv1/bn[0][0]']               
                                                                                                  
 zero_padding2d_1 (ZeroPadding2  (None, 52, 52, 64)  0           ['conv1/relu[0][0]']             
 D)                                                                                               
                                                                                                  
 pool1 (MaxPooling2D)           (None, 25, 25, 64)   0           ['zero_padding2d_1[0][0]']       
                                                                                                  
 conv2_block1_0_bn (BatchNormal  (None, 25, 25, 64)  256         ['pool1[0][0]']                  
 ization)                                                                                         
                                                                                                  
 conv2_block1_0_relu (Activatio  (None, 25, 25, 64)  0           ['conv2_block1_0_bn[0][0]']      
 n)                                                                                               
                                                                                                  
 conv2_block1_1_conv (Conv2D)   (None, 25, 25, 128)  8192        ['conv2_block1_0_relu[0][0]']    
                                                                                                  
 conv2_block1_1_bn (BatchNormal  (None, 25, 25, 128)  512        ['conv2_block1_1_conv[0][0]']    
 ization)                                                                                         
                                                                                                  
 conv2_block1_1_relu (Activatio  (None, 25, 25, 128)  0          ['conv2_block1_1_bn[0][0]']      
 n)                                                                                               
                                                                                                  
 conv2_block1_2_conv (Conv2D)   (None, 25, 25, 32)   36864       ['conv2_block1_1_relu[0][0]']    
                                                                                                  
 conv2_block1_concat (Concatena  (None, 25, 25, 96)  0           ['pool1[0][0]',                  
 te)                                                              'conv2_block1_2_conv[0][0]']    
                                                                                                  
 conv2_block2_0_bn (BatchNormal  (None, 25, 25, 96)  384         ['conv2_block1_concat[0][0]']    
 ization)                                                                                         
                                                                                                  
 conv2_block2_0_relu (Activatio  (None, 25, 25, 96)  0           ['conv2_block2_0_bn[0][0]']      
 n)                                                                                               
                                                                                                  
 conv2_block2_1_conv (Conv2D)   (None, 25, 25, 128)  12288       ['conv2_block2_0_relu[0][0]']    
                                                                                                  
 conv2_block2_1_bn (BatchNormal  (None, 25, 25, 128)  512        ['conv2_block2_1_conv[0][0]']    
 ization)                                                                                         
                                                                                                  
 conv2_block2_1_relu (Activatio  (None, 25, 25, 128)  0          ['conv2_block2_1_bn[0][0]']      
 n)                                                                                               
                                                                                                  
 conv2_block2_2_conv (Conv2D)   (None, 25, 25, 32)   36864       ['conv2_block2_1_relu[0][0]']    
                                                                                                  
 conv2_block2_concat (Concatena  (None, 25, 25, 128)  0          ['conv2_block1_concat[0][0]',    
 te)                                                              'conv2_block2_2_conv[0][0]']    
                                                                                                  
 conv2_block3_0_bn (BatchNormal  (None, 25, 25, 128)  512        ['conv2_block2_concat[0][0]']    
 ization)                                                                                         
                                                                                                  
 conv2_block3_0_relu (Activatio  (None, 25, 25, 128)  0          ['conv2_block3_0_bn[0][0]']      
 n)                                                                                               
                                                                                                  
 conv2_block3_1_conv (Conv2D)   (None, 25, 25, 128)  16384       ['conv2_block3_0_relu[0][0]']    
                                                                                                  
 conv2_block3_1_bn (BatchNormal  (None, 25, 25, 128)  512        ['conv2_block3_1_conv[0][0]']    
 ization)                                                                                         
                                                                                                  
 conv2_block3_1_relu (Activatio  (None, 25, 25, 128)  0          ['conv2_block3_1_bn[0][0]']      
 n)                                                                                               
                                                                                                  
 conv2_block3_2_conv (Conv2D)   (None, 25, 25, 32)   36864       ['conv2_block3_1_relu[0][0]']    
                                                                                                  
 conv2_block3_concat (Concatena  (None, 25, 25, 160)  0          ['conv2_block2_concat[0][0]',    
 te)                                                              'conv2_block3_2_conv[0][0]']    
                                                                                                  
 conv2_block4_0_bn (BatchNormal  (None, 25, 25, 160)  640        ['conv2_block3_concat[0][0]']    
 ization)                                                                                         
                                                                                                  
 conv2_block4_0_relu (Activatio  (None, 25, 25, 160)  0          ['conv2_block4_0_bn[0][0]']      
 n)                                                                                               
                                                                                                  
 conv2_block4_1_conv (Conv2D)   (None, 25, 25, 128)  20480       ['conv2_block4_0_relu[0][0]']    
                                                                                                  
 conv2_block4_1_bn (BatchNormal  (None, 25, 25, 128)  512        ['conv2_block4_1_conv[0][0]']    
 ization)                                                                                         
                                                                                                  
 conv2_block4_1_relu (Activatio  (None, 25, 25, 128)  0          ['conv2_block4_1_bn[0][0]']      
 n)                                                                                               
                                                                                                  
 conv2_block4_2_conv (Conv2D)   (None, 25, 25, 32)   36864       ['conv2_block4_1_relu[0][0]']    
                                                                                                  
 conv2_block4_concat (Concatena  (None, 25, 25, 192)  0          ['conv2_block3_concat[0][0]',    
 te)                                                              'conv2_block4_2_conv[0][0]']    
                                                                                                  
 conv2_block5_0_bn (BatchNormal  (None, 25, 25, 192)  768        ['conv2_block4_concat[0][0]']    
 ization)                                                                                         
                                                                                                  
 conv2_block5_0_relu (Activatio  (None, 25, 25, 192)  0          ['conv2_block5_0_bn[0][0]']      
 n)                                                                                               
                                                                                                  
 conv2_block5_1_conv (Conv2D)   (None, 25, 25, 128)  24576       ['conv2_block5_0_relu[0][0]']    
                                                                                                  
 conv2_block5_1_bn (BatchNormal  (None, 25, 25, 128)  512        ['conv2_block5_1_conv[0][0]']    
 ization)                                                                                         
                                                                                                  
 conv2_block5_1_relu (Activatio  (None, 25, 25, 128)  0          ['conv2_block5_1_bn[0][0]']      
 n)                                                                                               
                                                                                                  
 conv2_block5_2_conv (Conv2D)   (None, 25, 25, 32)   36864       ['conv2_block5_1_relu[0][0]']    
                                                                                                  
 conv2_block5_concat (Concatena  (None, 25, 25, 224)  0          ['conv2_block4_concat[0][0]',    
 te)                                                              'conv2_block5_2_conv[0][0]']    
                                                                                                  
 conv2_block6_0_bn (BatchNormal  (None, 25, 25, 224)  896        ['conv2_block5_concat[0][0]']    
 ization)                                                                                         
                                                                                                  
 conv2_block6_0_relu (Activatio  (None, 25, 25, 224)  0          ['conv2_block6_0_bn[0][0]']      
 n)                                                                                               
                                                                                                  
 conv2_block6_1_conv (Conv2D)   (None, 25, 25, 128)  28672       ['conv2_block6_0_relu[0][0]']    
                                                                                                  
 conv2_block6_1_bn (BatchNormal  (None, 25, 25, 128)  512        ['conv2_block6_1_conv[0][0]']    
 ization)                                                                                         
                                                                                                  
 conv2_block6_1_relu (Activatio  (None, 25, 25, 128)  0          ['conv2_block6_1_bn[0][0]']      
 n)                                                                                               
                                                                                                  
 conv2_block6_2_conv (Conv2D)   (None, 25, 25, 32)   36864       ['conv2_block6_1_relu[0][0]']    
                                                                                                  
 conv2_block6_concat (Concatena  (None, 25, 25, 256)  0          ['conv2_block5_concat[0][0]',    
 te)                                                              'conv2_block6_2_conv[0][0]']    
                                                                                                  
 pool2_bn (BatchNormalization)  (None, 25, 25, 256)  1024        ['conv2_block6_concat[0][0]']    
                                                                                                  
 pool2_relu (Activation)        (None, 25, 25, 256)  0           ['pool2_bn[0][0]']               
                                                                                                  
 pool2_conv (Conv2D)            (None, 25, 25, 128)  32768       ['pool2_relu[0][0]']             
                                                                                                  
 pool2_pool (AveragePooling2D)  (None, 12, 12, 128)  0           ['pool2_conv[0][0]']             
                                                                                                  
 conv3_block1_0_bn (BatchNormal  (None, 12, 12, 128)  512        ['pool2_pool[0][0]']             
 ization)                                                                                         
                                                                                                  
 conv3_block1_0_relu (Activatio  (None, 12, 12, 128)  0          ['conv3_block1_0_bn[0][0]']      
 n)                                                                                               
                                                                                                  
 conv3_block1_1_conv (Conv2D)   (None, 12, 12, 128)  16384       ['conv3_block1_0_relu[0][0]']    
                                                                                                  
 conv3_block1_1_bn (BatchNormal  (None, 12, 12, 128)  512        ['conv3_block1_1_conv[0][0]']    
 ization)                                                                                         
                                                                                                  
 conv3_block1_1_relu (Activatio  (None, 12, 12, 128)  0          ['conv3_block1_1_bn[0][0]']      
 n)                                                                                               
                                                                                                  
 conv3_block1_2_conv (Conv2D)   (None, 12, 12, 32)   36864       ['conv3_block1_1_relu[0][0]']    
                                                                                                  
 conv3_block1_concat (Concatena  (None, 12, 12, 160)  0          ['pool2_pool[0][0]',             
 te)                                                              'conv3_block1_2_conv[0][0]']    
                                                                                                  
 conv3_block2_0_bn (BatchNormal  (None, 12, 12, 160)  640        ['conv3_block1_concat[0][0]']    
 ization)                                                                                         
                                                                                                  
 conv3_block2_0_relu (Activatio  (None, 12, 12, 160)  0          ['conv3_block2_0_bn[0][0]']      
 n)                                                                                               
                                                                                                  
 conv3_block2_1_conv (Conv2D)   (None, 12, 12, 128)  20480       ['conv3_block2_0_relu[0][0]']    
                                                                                                  
 conv3_block2_1_bn (BatchNormal  (None, 12, 12, 128)  512        ['conv3_block2_1_conv[0][0]']    
 ization)                                                                                         
                                                                                                  
 conv3_block2_1_relu (Activatio  (None, 12, 12, 128)  0          ['conv3_block2_1_bn[0][0]']      
 n)                                                                                               
                                                                                                  
 conv3_block2_2_conv (Conv2D)   (None, 12, 12, 32)   36864       ['conv3_block2_1_relu[0][0]']    
                                                                                                  
 conv3_block2_concat (Concatena  (None, 12, 12, 192)  0          ['conv3_block1_concat[0][0]',    
 te)                                                              'conv3_block2_2_conv[0][0]']    
                                                                                                  
 conv3_block3_0_bn (BatchNormal  (None, 12, 12, 192)  768        ['conv3_block2_concat[0][0]']    
 ization)                                                                                         
                                                                                                  
 conv3_block3_0_relu (Activatio  (None, 12, 12, 192)  0          ['conv3_block3_0_bn[0][0]']      
 n)                                                                                               
                                                                                                  
 conv3_block3_1_conv (Conv2D)   (None, 12, 12, 128)  24576       ['conv3_block3_0_relu[0][0]']    
                                                                                                  
 conv3_block3_1_bn (BatchNormal  (None, 12, 12, 128)  512        ['conv3_block3_1_conv[0][0]']    
 ization)                                                                                         
                                                                                                  
 conv3_block3_1_relu (Activatio  (None, 12, 12, 128)  0          ['conv3_block3_1_bn[0][0]']      
 n)                                                                                               
                                                                                                  
 conv3_block3_2_conv (Conv2D)   (None, 12, 12, 32)   36864       ['conv3_block3_1_relu[0][0]']    
                                                                                                  
 conv3_block3_concat (Concatena  (None, 12, 12, 224)  0          ['conv3_block2_concat[0][0]',    
 te)                                                              'conv3_block3_2_conv[0][0]']    
                                                                                                  
 conv3_block4_0_bn (BatchNormal  (None, 12, 12, 224)  896        ['conv3_block3_concat[0][0]']    
 ization)                                                                                         
                                                                                                  
 conv3_block4_0_relu (Activatio  (None, 12, 12, 224)  0          ['conv3_block4_0_bn[0][0]']      
 n)                                                                                               
                                                                                                  
 conv3_block4_1_conv (Conv2D)   (None, 12, 12, 128)  28672       ['conv3_block4_0_relu[0][0]']    
                                                                                                  
 conv3_block4_1_bn (BatchNormal  (None, 12, 12, 128)  512        ['conv3_block4_1_conv[0][0]']    
 ization)                                                                                         
                                                                                                  
 conv3_block4_1_relu (Activatio  (None, 12, 12, 128)  0          ['conv3_block4_1_bn[0][0]']      
 n)                                                                                               
                                                                                                  
 conv3_block4_2_conv (Conv2D)   (None, 12, 12, 32)   36864       ['conv3_block4_1_relu[0][0]']    
                                                                                                  
 conv3_block4_concat (Concatena  (None, 12, 12, 256)  0          ['conv3_block3_concat[0][0]',    
 te)                                                              'conv3_block4_2_conv[0][0]']    
                                                                                                  
 conv3_block5_0_bn (BatchNormal  (None, 12, 12, 256)  1024       ['conv3_block4_concat[0][0]']    
 ization)                                                                                         
                                                                                                  
 conv3_block5_0_relu (Activatio  (None, 12, 12, 256)  0          ['conv3_block5_0_bn[0][0]']      
 n)                                                                                               
                                                                                                  
 conv3_block5_1_conv (Conv2D)   (None, 12, 12, 128)  32768       ['conv3_block5_0_relu[0][0]']    
                                                                                                  
 conv3_block5_1_bn (BatchNormal  (None, 12, 12, 128)  512        ['conv3_block5_1_conv[0][0]']    
 ization)                                                                                         
                                                                                                  
 conv3_block5_1_relu (Activatio  (None, 12, 12, 128)  0          ['conv3_block5_1_bn[0][0]']      
 n)                                                                                               
                                                                                                  
 conv3_block5_2_conv (Conv2D)   (None, 12, 12, 32)   36864       ['conv3_block5_1_relu[0][0]']    
                                                                                                  
 conv3_block5_concat (Concatena  (None, 12, 12, 288)  0          ['conv3_block4_concat[0][0]',    
 te)                                                              'conv3_block5_2_conv[0][0]']    
                                                                                                  
 conv3_block6_0_bn (BatchNormal  (None, 12, 12, 288)  1152       ['conv3_block5_concat[0][0]']    
 ization)                                                                                         
                                                                                                  
 conv3_block6_0_relu (Activatio  (None, 12, 12, 288)  0          ['conv3_block6_0_bn[0][0]']      
 n)                                                                                               
                                                                                                  
 conv3_block6_1_conv (Conv2D)   (None, 12, 12, 128)  36864       ['conv3_block6_0_relu[0][0]']    
                                                                                                  
 conv3_block6_1_bn (BatchNormal  (None, 12, 12, 128)  512        ['conv3_block6_1_conv[0][0]']    
 ization)                                                                                         
                                                                                                  
 conv3_block6_1_relu (Activatio  (None, 12, 12, 128)  0          ['conv3_block6_1_bn[0][0]']      
 n)                                                                                               
                                                                                                  
 conv3_block6_2_conv (Conv2D)   (None, 12, 12, 32)   36864       ['conv3_block6_1_relu[0][0]']    
                                                                                                  
 conv3_block6_concat (Concatena  (None, 12, 12, 320)  0          ['conv3_block5_concat[0][0]',    
 te)                                                              'conv3_block6_2_conv[0][0]']    
                                                                                                  
 conv3_block7_0_bn (BatchNormal  (None, 12, 12, 320)  1280       ['conv3_block6_concat[0][0]']    
 ization)                                                                                         
                                                                                                  
 conv3_block7_0_relu (Activatio  (None, 12, 12, 320)  0          ['conv3_block7_0_bn[0][0]']      
 n)                                                                                               
                                                                                                  
 conv3_block7_1_conv (Conv2D)   (None, 12, 12, 128)  40960       ['conv3_block7_0_relu[0][0]']    
                                                                                                  
 conv3_block7_1_bn (BatchNormal  (None, 12, 12, 128)  512        ['conv3_block7_1_conv[0][0]']    
 ization)                                                                                         
                                                                                                  
 conv3_block7_1_relu (Activatio  (None, 12, 12, 128)  0          ['conv3_block7_1_bn[0][0]']      
 n)                                                                                               
                                                                                                  
 conv3_block7_2_conv (Conv2D)   (None, 12, 12, 32)   36864       ['conv3_block7_1_relu[0][0]']    
                                                                                                  
 conv3_block7_concat (Concatena  (None, 12, 12, 352)  0          ['conv3_block6_concat[0][0]',    
 te)                                                              'conv3_block7_2_conv[0][0]']    
                                                                                                  
 conv3_block8_0_bn (BatchNormal  (None, 12, 12, 352)  1408       ['conv3_block7_concat[0][0]']    
 ization)                                                                                         
                                                                                                  
 conv3_block8_0_relu (Activatio  (None, 12, 12, 352)  0          ['conv3_block8_0_bn[0][0]']      
 n)                                                                                               
                                                                                                  
 conv3_block8_1_conv (Conv2D)   (None, 12, 12, 128)  45056       ['conv3_block8_0_relu[0][0]']    
                                                                                                  
 conv3_block8_1_bn (BatchNormal  (None, 12, 12, 128)  512        ['conv3_block8_1_conv[0][0]']    
 ization)                                                                                         
                                                                                                  
 conv3_block8_1_relu (Activatio  (None, 12, 12, 128)  0          ['conv3_block8_1_bn[0][0]']      
 n)                                                                                               
                                                                                                  
 conv3_block8_2_conv (Conv2D)   (None, 12, 12, 32)   36864       ['conv3_block8_1_relu[0][0]']    
                                                                                                  
 conv3_block8_concat (Concatena  (None, 12, 12, 384)  0          ['conv3_block7_concat[0][0]',    
 te)                                                              'conv3_block8_2_conv[0][0]']    
                                                                                                  
 conv3_block9_0_bn (BatchNormal  (None, 12, 12, 384)  1536       ['conv3_block8_concat[0][0]']    
 ization)                                                                                         
                                                                                                  
 conv3_block9_0_relu (Activatio  (None, 12, 12, 384)  0          ['conv3_block9_0_bn[0][0]']      
 n)                                                                                               
                                                                                                  
 conv3_block9_1_conv (Conv2D)   (None, 12, 12, 128)  49152       ['conv3_block9_0_relu[0][0]']    
                                                                                                  
 conv3_block9_1_bn (BatchNormal  (None, 12, 12, 128)  512        ['conv3_block9_1_conv[0][0]']    
 ization)                                                                                         
                                                                                                  
 conv3_block9_1_relu (Activatio  (None, 12, 12, 128)  0          ['conv3_block9_1_bn[0][0]']      
 n)                                                                                               
                                                                                                  
 conv3_block9_2_conv (Conv2D)   (None, 12, 12, 32)   36864       ['conv3_block9_1_relu[0][0]']    
                                                                                                  
 conv3_block9_concat (Concatena  (None, 12, 12, 416)  0          ['conv3_block8_concat[0][0]',    
 te)                                                              'conv3_block9_2_conv[0][0]']    
                                                                                                  
 conv3_block10_0_bn (BatchNorma  (None, 12, 12, 416)  1664       ['conv3_block9_concat[0][0]']    
 lization)                                                                                        
                                                                                                  
 conv3_block10_0_relu (Activati  (None, 12, 12, 416)  0          ['conv3_block10_0_bn[0][0]']     
 on)                                                                                              
                                                                                                  
 conv3_block10_1_conv (Conv2D)  (None, 12, 12, 128)  53248       ['conv3_block10_0_relu[0][0]']   
                                                                                                  
 conv3_block10_1_bn (BatchNorma  (None, 12, 12, 128)  512        ['conv3_block10_1_conv[0][0]']   
 lization)                                                                                        
                                                                                                  
 conv3_block10_1_relu (Activati  (None, 12, 12, 128)  0          ['conv3_block10_1_bn[0][0]']     
 on)                                                                                              
                                                                                                  
 conv3_block10_2_conv (Conv2D)  (None, 12, 12, 32)   36864       ['conv3_block10_1_relu[0][0]']   
                                                                                                  
 conv3_block10_concat (Concaten  (None, 12, 12, 448)  0          ['conv3_block9_concat[0][0]',    
 ate)                                                             'conv3_block10_2_conv[0][0]']   
                                                                                                  
 conv3_block11_0_bn (BatchNorma  (None, 12, 12, 448)  1792       ['conv3_block10_concat[0][0]']   
 lization)                                                                                        
                                                                                                  
 conv3_block11_0_relu (Activati  (None, 12, 12, 448)  0          ['conv3_block11_0_bn[0][0]']     
 on)                                                                                              
                                                                                                  
 conv3_block11_1_conv (Conv2D)  (None, 12, 12, 128)  57344       ['conv3_block11_0_relu[0][0]']   
                                                                                                  
 conv3_block11_1_bn (BatchNorma  (None, 12, 12, 128)  512        ['conv3_block11_1_conv[0][0]']   
 lization)                                                                                        
                                                                                                  
 conv3_block11_1_relu (Activati  (None, 12, 12, 128)  0          ['conv3_block11_1_bn[0][0]']     
 on)                                                                                              
                                                                                                  
 conv3_block11_2_conv (Conv2D)  (None, 12, 12, 32)   36864       ['conv3_block11_1_relu[0][0]']   
                                                                                                  
 conv3_block11_concat (Concaten  (None, 12, 12, 480)  0          ['conv3_block10_concat[0][0]',   
 ate)                                                             'conv3_block11_2_conv[0][0]']   
                                                                                                  
 conv3_block12_0_bn (BatchNorma  (None, 12, 12, 480)  1920       ['conv3_block11_concat[0][0]']   
 lization)                                                                                        
                                                                                                  
 conv3_block12_0_relu (Activati  (None, 12, 12, 480)  0          ['conv3_block12_0_bn[0][0]']     
 on)                                                                                              
                                                                                                  
 conv3_block12_1_conv (Conv2D)  (None, 12, 12, 128)  61440       ['conv3_block12_0_relu[0][0]']   
                                                                                                  
 conv3_block12_1_bn (BatchNorma  (None, 12, 12, 128)  512        ['conv3_block12_1_conv[0][0]']   
 lization)                                                                                        
                                                                                                  
 conv3_block12_1_relu (Activati  (None, 12, 12, 128)  0          ['conv3_block12_1_bn[0][0]']     
 on)                                                                                              
                                                                                                  
 conv3_block12_2_conv (Conv2D)  (None, 12, 12, 32)   36864       ['conv3_block12_1_relu[0][0]']   
                                                                                                  
 conv3_block12_concat (Concaten  (None, 12, 12, 512)  0          ['conv3_block11_concat[0][0]',   
 ate)                                                             'conv3_block12_2_conv[0][0]']   
                                                                                                  
 pool3_bn (BatchNormalization)  (None, 12, 12, 512)  2048        ['conv3_block12_concat[0][0]']   
                                                                                                  
 pool3_relu (Activation)        (None, 12, 12, 512)  0           ['pool3_bn[0][0]']               
                                                                                                  
 pool3_conv (Conv2D)            (None, 12, 12, 256)  131072      ['pool3_relu[0][0]']             
                                                                                                  
 pool3_pool (AveragePooling2D)  (None, 6, 6, 256)    0           ['pool3_conv[0][0]']             
                                                                                                  
 conv4_block1_0_bn (BatchNormal  (None, 6, 6, 256)   1024        ['pool3_pool[0][0]']             
 ization)                                                                                         
                                                                                                  
 conv4_block1_0_relu (Activatio  (None, 6, 6, 256)   0           ['conv4_block1_0_bn[0][0]']      
 n)                                                                                               
                                                                                                  
 conv4_block1_1_conv (Conv2D)   (None, 6, 6, 128)    32768       ['conv4_block1_0_relu[0][0]']    
                                                                                                  
 conv4_block1_1_bn (BatchNormal  (None, 6, 6, 128)   512         ['conv4_block1_1_conv[0][0]']    
 ization)                                                                                         
                                                                                                  
 conv4_block1_1_relu (Activatio  (None, 6, 6, 128)   0           ['conv4_block1_1_bn[0][0]']      
 n)                                                                                               
                                                                                                  
 conv4_block1_2_conv (Conv2D)   (None, 6, 6, 32)     36864       ['conv4_block1_1_relu[0][0]']    
                                                                                                  
 conv4_block1_concat (Concatena  (None, 6, 6, 288)   0           ['pool3_pool[0][0]',             
 te)                                                              'conv4_block1_2_conv[0][0]']    
                                                                                                  
 conv4_block2_0_bn (BatchNormal  (None, 6, 6, 288)   1152        ['conv4_block1_concat[0][0]']    
 ization)                                                                                         
                                                                                                  
 conv4_block2_0_relu (Activatio  (None, 6, 6, 288)   0           ['conv4_block2_0_bn[0][0]']      
 n)                                                                                               
                                                                                                  
 conv4_block2_1_conv (Conv2D)   (None, 6, 6, 128)    36864       ['conv4_block2_0_relu[0][0]']    
                                                                                                  
 conv4_block2_1_bn (BatchNormal  (None, 6, 6, 128)   512         ['conv4_block2_1_conv[0][0]']    
 ization)                                                                                         
                                                                                                  
 conv4_block2_1_relu (Activatio  (None, 6, 6, 128)   0           ['conv4_block2_1_bn[0][0]']      
 n)                                                                                               
                                                                                                  
 conv4_block2_2_conv (Conv2D)   (None, 6, 6, 32)     36864       ['conv4_block2_1_relu[0][0]']    
                                                                                                  
 conv4_block2_concat (Concatena  (None, 6, 6, 320)   0           ['conv4_block1_concat[0][0]',    
 te)                                                              'conv4_block2_2_conv[0][0]']    
                                                                                                  
 conv4_block3_0_bn (BatchNormal  (None, 6, 6, 320)   1280        ['conv4_block2_concat[0][0]']    
 ization)                                                                                         
                                                                                                  
 conv4_block3_0_relu (Activatio  (None, 6, 6, 320)   0           ['conv4_block3_0_bn[0][0]']      
 n)                                                                                               
                                                                                                  
 conv4_block3_1_conv (Conv2D)   (None, 6, 6, 128)    40960       ['conv4_block3_0_relu[0][0]']    
                                                                                                  
 conv4_block3_1_bn (BatchNormal  (None, 6, 6, 128)   512         ['conv4_block3_1_conv[0][0]']    
 ization)                                                                                         
                                                                                                  
 conv4_block3_1_relu (Activatio  (None, 6, 6, 128)   0           ['conv4_block3_1_bn[0][0]']      
 n)                                                                                               
                                                                                                  
 conv4_block3_2_conv (Conv2D)   (None, 6, 6, 32)     36864       ['conv4_block3_1_relu[0][0]']    
                                                                                                  
 conv4_block3_concat (Concatena  (None, 6, 6, 352)   0           ['conv4_block2_concat[0][0]',    
 te)                                                              'conv4_block3_2_conv[0][0]']    
                                                                                                  
 conv4_block4_0_bn (BatchNormal  (None, 6, 6, 352)   1408        ['conv4_block3_concat[0][0]']    
 ization)                                                                                         
                                                                                                  
 conv4_block4_0_relu (Activatio  (None, 6, 6, 352)   0           ['conv4_block4_0_bn[0][0]']      
 n)                                                                                               
                                                                                                  
 conv4_block4_1_conv (Conv2D)   (None, 6, 6, 128)    45056       ['conv4_block4_0_relu[0][0]']    
                                                                                                  
 conv4_block4_1_bn (BatchNormal  (None, 6, 6, 128)   512         ['conv4_block4_1_conv[0][0]']    
 ization)                                                                                         
                                                                                                  
 conv4_block4_1_relu (Activatio  (None, 6, 6, 128)   0           ['conv4_block4_1_bn[0][0]']      
 n)                                                                                               
                                                                                                  
 conv4_block4_2_conv (Conv2D)   (None, 6, 6, 32)     36864       ['conv4_block4_1_relu[0][0]']    
                                                                                                  
 conv4_block4_concat (Concatena  (None, 6, 6, 384)   0           ['conv4_block3_concat[0][0]',    
 te)                                                              'conv4_block4_2_conv[0][0]']    
                                                                                                  
 conv4_block5_0_bn (BatchNormal  (None, 6, 6, 384)   1536        ['conv4_block4_concat[0][0]']    
 ization)                                                                                         
                                                                                                  
 conv4_block5_0_relu (Activatio  (None, 6, 6, 384)   0           ['conv4_block5_0_bn[0][0]']      
 n)                                                                                               
                                                                                                  
 conv4_block5_1_conv (Conv2D)   (None, 6, 6, 128)    49152       ['conv4_block5_0_relu[0][0]']    
                                                                                                  
 conv4_block5_1_bn (BatchNormal  (None, 6, 6, 128)   512         ['conv4_block5_1_conv[0][0]']    
 ization)                                                                                         
                                                                                                  
 conv4_block5_1_relu (Activatio  (None, 6, 6, 128)   0           ['conv4_block5_1_bn[0][0]']      
 n)                                                                                               
                                                                                                  
 conv4_block5_2_conv (Conv2D)   (None, 6, 6, 32)     36864       ['conv4_block5_1_relu[0][0]']    
                                                                                                  
 conv4_block5_concat (Concatena  (None, 6, 6, 416)   0           ['conv4_block4_concat[0][0]',    
 te)                                                              'conv4_block5_2_conv[0][0]']    
                                                                                                  
 conv4_block6_0_bn (BatchNormal  (None, 6, 6, 416)   1664        ['conv4_block5_concat[0][0]']    
 ization)                                                                                         
                                                                                                  
 conv4_block6_0_relu (Activatio  (None, 6, 6, 416)   0           ['conv4_block6_0_bn[0][0]']      
 n)                                                                                               
                                                                                                  
 conv4_block6_1_conv (Conv2D)   (None, 6, 6, 128)    53248       ['conv4_block6_0_relu[0][0]']    
                                                                                                  
 conv4_block6_1_bn (BatchNormal  (None, 6, 6, 128)   512         ['conv4_block6_1_conv[0][0]']    
 ization)                                                                                         
                                                                                                  
 conv4_block6_1_relu (Activatio  (None, 6, 6, 128)   0           ['conv4_block6_1_bn[0][0]']      
 n)                                                                                               
                                                                                                  
 conv4_block6_2_conv (Conv2D)   (None, 6, 6, 32)     36864       ['conv4_block6_1_relu[0][0]']    
                                                                                                  
 conv4_block6_concat (Concatena  (None, 6, 6, 448)   0           ['conv4_block5_concat[0][0]',    
 te)                                                              'conv4_block6_2_conv[0][0]']    
                                                                                                  
 conv4_block7_0_bn (BatchNormal  (None, 6, 6, 448)   1792        ['conv4_block6_concat[0][0]']    
 ization)                                                                                         
                                                                                                  
 conv4_block7_0_relu (Activatio  (None, 6, 6, 448)   0           ['conv4_block7_0_bn[0][0]']      
 n)                                                                                               
                                                                                                  
 conv4_block7_1_conv (Conv2D)   (None, 6, 6, 128)    57344       ['conv4_block7_0_relu[0][0]']    
                                                                                                  
 conv4_block7_1_bn (BatchNormal  (None, 6, 6, 128)   512         ['conv4_block7_1_conv[0][0]']    
 ization)                                                                                         
                                                                                                  
 conv4_block7_1_relu (Activatio  (None, 6, 6, 128)   0           ['conv4_block7_1_bn[0][0]']      
 n)                                                                                               
                                                                                                  
 conv4_block7_2_conv (Conv2D)   (None, 6, 6, 32)     36864       ['conv4_block7_1_relu[0][0]']    
                                                                                                  
 conv4_block7_concat (Concatena  (None, 6, 6, 480)   0           ['conv4_block6_concat[0][0]',    
 te)                                                              'conv4_block7_2_conv[0][0]']    
                                                                                                  
 conv4_block8_0_bn (BatchNormal  (None, 6, 6, 480)   1920        ['conv4_block7_concat[0][0]']    
 ization)                                                                                         
                                                                                                  
 conv4_block8_0_relu (Activatio  (None, 6, 6, 480)   0           ['conv4_block8_0_bn[0][0]']      
 n)                                                                                               
                                                                                                  
 conv4_block8_1_conv (Conv2D)   (None, 6, 6, 128)    61440       ['conv4_block8_0_relu[0][0]']    
                                                                                                  
 conv4_block8_1_bn (BatchNormal  (None, 6, 6, 128)   512         ['conv4_block8_1_conv[0][0]']    
 ization)                                                                                         
                                                                                                  
 conv4_block8_1_relu (Activatio  (None, 6, 6, 128)   0           ['conv4_block8_1_bn[0][0]']      
 n)                                                                                               
                                                                                                  
 conv4_block8_2_conv (Conv2D)   (None, 6, 6, 32)     36864       ['conv4_block8_1_relu[0][0]']    
                                                                                                  
 conv4_block8_concat (Concatena  (None, 6, 6, 512)   0           ['conv4_block7_concat[0][0]',    
 te)                                                              'conv4_block8_2_conv[0][0]']    
                                                                                                  
 conv4_block9_0_bn (BatchNormal  (None, 6, 6, 512)   2048        ['conv4_block8_concat[0][0]']    
 ization)                                                                                         
                                                                                                  
 conv4_block9_0_relu (Activatio  (None, 6, 6, 512)   0           ['conv4_block9_0_bn[0][0]']      
 n)                                                                                               
                                                                                                  
 conv4_block9_1_conv (Conv2D)   (None, 6, 6, 128)    65536       ['conv4_block9_0_relu[0][0]']    
                                                                                                  
 conv4_block9_1_bn (BatchNormal  (None, 6, 6, 128)   512         ['conv4_block9_1_conv[0][0]']    
 ization)                                                                                         
                                                                                                  
 conv4_block9_1_relu (Activatio  (None, 6, 6, 128)   0           ['conv4_block9_1_bn[0][0]']      
 n)                                                                                               
                                                                                                  
 conv4_block9_2_conv (Conv2D)   (None, 6, 6, 32)     36864       ['conv4_block9_1_relu[0][0]']    
                                                                                                  
 conv4_block9_concat (Concatena  (None, 6, 6, 544)   0           ['conv4_block8_concat[0][0]',    
 te)                                                              'conv4_block9_2_conv[0][0]']    
                                                                                                  
 conv4_block10_0_bn (BatchNorma  (None, 6, 6, 544)   2176        ['conv4_block9_concat[0][0]']    
 lization)                                                                                        
                                                                                                  
 conv4_block10_0_relu (Activati  (None, 6, 6, 544)   0           ['conv4_block10_0_bn[0][0]']     
 on)                                                                                              
                                                                                                  
 conv4_block10_1_conv (Conv2D)  (None, 6, 6, 128)    69632       ['conv4_block10_0_relu[0][0]']   
                                                                                                  
 conv4_block10_1_bn (BatchNorma  (None, 6, 6, 128)   512         ['conv4_block10_1_conv[0][0]']   
 lization)                                                                                        
                                                                                                  
 conv4_block10_1_relu (Activati  (None, 6, 6, 128)   0           ['conv4_block10_1_bn[0][0]']     
 on)                                                                                              
                                                                                                  
 conv4_block10_2_conv (Conv2D)  (None, 6, 6, 32)     36864       ['conv4_block10_1_relu[0][0]']   
                                                                                                  
 conv4_block10_concat (Concaten  (None, 6, 6, 576)   0           ['conv4_block9_concat[0][0]',    
 ate)                                                             'conv4_block10_2_conv[0][0]']   
                                                                                                  
 conv4_block11_0_bn (BatchNorma  (None, 6, 6, 576)   2304        ['conv4_block10_concat[0][0]']   
 lization)                                                                                        
                                                                                                  
 conv4_block11_0_relu (Activati  (None, 6, 6, 576)   0           ['conv4_block11_0_bn[0][0]']     
 on)                                                                                              
                                                                                                  
 conv4_block11_1_conv (Conv2D)  (None, 6, 6, 128)    73728       ['conv4_block11_0_relu[0][0]']   
                                                                                                  
 conv4_block11_1_bn (BatchNorma  (None, 6, 6, 128)   512         ['conv4_block11_1_conv[0][0]']   
 lization)                                                                                        
                                                                                                  
 conv4_block11_1_relu (Activati  (None, 6, 6, 128)   0           ['conv4_block11_1_bn[0][0]']     
 on)                                                                                              
                                                                                                  
 conv4_block11_2_conv (Conv2D)  (None, 6, 6, 32)     36864       ['conv4_block11_1_relu[0][0]']   
                                                                                                  
 conv4_block11_concat (Concaten  (None, 6, 6, 608)   0           ['conv4_block10_concat[0][0]',   
 ate)                                                             'conv4_block11_2_conv[0][0]']   
                                                                                                  
 conv4_block12_0_bn (BatchNorma  (None, 6, 6, 608)   2432        ['conv4_block11_concat[0][0]']   
 lization)                                                                                        
                                                                                                  
 conv4_block12_0_relu (Activati  (None, 6, 6, 608)   0           ['conv4_block12_0_bn[0][0]']     
 on)                                                                                              
                                                                                                  
 conv4_block12_1_conv (Conv2D)  (None, 6, 6, 128)    77824       ['conv4_block12_0_relu[0][0]']   
                                                                                                  
 conv4_block12_1_bn (BatchNorma  (None, 6, 6, 128)   512         ['conv4_block12_1_conv[0][0]']   
 lization)                                                                                        
                                                                                                  
 conv4_block12_1_relu (Activati  (None, 6, 6, 128)   0           ['conv4_block12_1_bn[0][0]']     
 on)                                                                                              
                                                                                                  
 conv4_block12_2_conv (Conv2D)  (None, 6, 6, 32)     36864       ['conv4_block12_1_relu[0][0]']   
                                                                                                  
 conv4_block12_concat (Concaten  (None, 6, 6, 640)   0           ['conv4_block11_concat[0][0]',   
 ate)                                                             'conv4_block12_2_conv[0][0]']   
                                                                                                  
 conv4_block13_0_bn (BatchNorma  (None, 6, 6, 640)   2560        ['conv4_block12_concat[0][0]']   
 lization)                                                                                        
                                                                                                  
 conv4_block13_0_relu (Activati  (None, 6, 6, 640)   0           ['conv4_block13_0_bn[0][0]']     
 on)                                                                                              
                                                                                                  
 conv4_block13_1_conv (Conv2D)  (None, 6, 6, 128)    81920       ['conv4_block13_0_relu[0][0]']   
                                                                                                  
 conv4_block13_1_bn (BatchNorma  (None, 6, 6, 128)   512         ['conv4_block13_1_conv[0][0]']   
 lization)                                                                                        
                                                                                                  
 conv4_block13_1_relu (Activati  (None, 6, 6, 128)   0           ['conv4_block13_1_bn[0][0]']     
 on)                                                                                              
                                                                                                  
 conv4_block13_2_conv (Conv2D)  (None, 6, 6, 32)     36864       ['conv4_block13_1_relu[0][0]']   
                                                                                                  
 conv4_block13_concat (Concaten  (None, 6, 6, 672)   0           ['conv4_block12_concat[0][0]',   
 ate)                                                             'conv4_block13_2_conv[0][0]']   
                                                                                                  
 conv4_block14_0_bn (BatchNorma  (None, 6, 6, 672)   2688        ['conv4_block13_concat[0][0]']   
 lization)                                                                                        
                                                                                                  
 conv4_block14_0_relu (Activati  (None, 6, 6, 672)   0           ['conv4_block14_0_bn[0][0]']     
 on)                                                                                              
                                                                                                  
 conv4_block14_1_conv (Conv2D)  (None, 6, 6, 128)    86016       ['conv4_block14_0_relu[0][0]']   
                                                                                                  
 conv4_block14_1_bn (BatchNorma  (None, 6, 6, 128)   512         ['conv4_block14_1_conv[0][0]']   
 lization)                                                                                        
                                                                                                  
 conv4_block14_1_relu (Activati  (None, 6, 6, 128)   0           ['conv4_block14_1_bn[0][0]']     
 on)                                                                                              
                                                                                                  
 conv4_block14_2_conv (Conv2D)  (None, 6, 6, 32)     36864       ['conv4_block14_1_relu[0][0]']   
                                                                                                  
 conv4_block14_concat (Concaten  (None, 6, 6, 704)   0           ['conv4_block13_concat[0][0]',   
 ate)                                                             'conv4_block14_2_conv[0][0]']   
                                                                                                  
 conv4_block15_0_bn (BatchNorma  (None, 6, 6, 704)   2816        ['conv4_block14_concat[0][0]']   
 lization)                                                                                        
                                                                                                  
 conv4_block15_0_relu (Activati  (None, 6, 6, 704)   0           ['conv4_block15_0_bn[0][0]']     
 on)                                                                                              
                                                                                                  
 conv4_block15_1_conv (Conv2D)  (None, 6, 6, 128)    90112       ['conv4_block15_0_relu[0][0]']   
                                                                                                  
 conv4_block15_1_bn (BatchNorma  (None, 6, 6, 128)   512         ['conv4_block15_1_conv[0][0]']   
 lization)                                                                                        
                                                                                                  
 conv4_block15_1_relu (Activati  (None, 6, 6, 128)   0           ['conv4_block15_1_bn[0][0]']     
 on)                                                                                              
                                                                                                  
 conv4_block15_2_conv (Conv2D)  (None, 6, 6, 32)     36864       ['conv4_block15_1_relu[0][0]']   
                                                                                                  
 conv4_block15_concat (Concaten  (None, 6, 6, 736)   0           ['conv4_block14_concat[0][0]',   
 ate)                                                             'conv4_block15_2_conv[0][0]']   
                                                                                                  
 conv4_block16_0_bn (BatchNorma  (None, 6, 6, 736)   2944        ['conv4_block15_concat[0][0]']   
 lization)                                                                                        
                                                                                                  
 conv4_block16_0_relu (Activati  (None, 6, 6, 736)   0           ['conv4_block16_0_bn[0][0]']     
 on)                                                                                              
                                                                                                  
 conv4_block16_1_conv (Conv2D)  (None, 6, 6, 128)    94208       ['conv4_block16_0_relu[0][0]']   
                                                                                                  
 conv4_block16_1_bn (BatchNorma  (None, 6, 6, 128)   512         ['conv4_block16_1_conv[0][0]']   
 lization)                                                                                        
                                                                                                  
 conv4_block16_1_relu (Activati  (None, 6, 6, 128)   0           ['conv4_block16_1_bn[0][0]']     
 on)                                                                                              
                                                                                                  
 conv4_block16_2_conv (Conv2D)  (None, 6, 6, 32)     36864       ['conv4_block16_1_relu[0][0]']   
                                                                                                  
 conv4_block16_concat (Concaten  (None, 6, 6, 768)   0           ['conv4_block15_concat[0][0]',   
 ate)                                                             'conv4_block16_2_conv[0][0]']   
                                                                                                  
 conv4_block17_0_bn (BatchNorma  (None, 6, 6, 768)   3072        ['conv4_block16_concat[0][0]']   
 lization)                                                                                        
                                                                                                  
 conv4_block17_0_relu (Activati  (None, 6, 6, 768)   0           ['conv4_block17_0_bn[0][0]']     
 on)                                                                                              
                                                                                                  
 conv4_block17_1_conv (Conv2D)  (None, 6, 6, 128)    98304       ['conv4_block17_0_relu[0][0]']   
                                                                                                  
 conv4_block17_1_bn (BatchNorma  (None, 6, 6, 128)   512         ['conv4_block17_1_conv[0][0]']   
 lization)                                                                                        
                                                                                                  
 conv4_block17_1_relu (Activati  (None, 6, 6, 128)   0           ['conv4_block17_1_bn[0][0]']     
 on)                                                                                              
                                                                                                  
 conv4_block17_2_conv (Conv2D)  (None, 6, 6, 32)     36864       ['conv4_block17_1_relu[0][0]']   
                                                                                                  
 conv4_block17_concat (Concaten  (None, 6, 6, 800)   0           ['conv4_block16_concat[0][0]',   
 ate)                                                             'conv4_block17_2_conv[0][0]']   
                                                                                                  
 conv4_block18_0_bn (BatchNorma  (None, 6, 6, 800)   3200        ['conv4_block17_concat[0][0]']   
 lization)                                                                                        
                                                                                                  
 conv4_block18_0_relu (Activati  (None, 6, 6, 800)   0           ['conv4_block18_0_bn[0][0]']     
 on)                                                                                              
                                                                                                  
 conv4_block18_1_conv (Conv2D)  (None, 6, 6, 128)    102400      ['conv4_block18_0_relu[0][0]']   
                                                                                                  
 conv4_block18_1_bn (BatchNorma  (None, 6, 6, 128)   512         ['conv4_block18_1_conv[0][0]']   
 lization)                                                                                        
                                                                                                  
 conv4_block18_1_relu (Activati  (None, 6, 6, 128)   0           ['conv4_block18_1_bn[0][0]']     
 on)                                                                                              
                                                                                                  
 conv4_block18_2_conv (Conv2D)  (None, 6, 6, 32)     36864       ['conv4_block18_1_relu[0][0]']   
                                                                                                  
 conv4_block18_concat (Concaten  (None, 6, 6, 832)   0           ['conv4_block17_concat[0][0]',   
 ate)                                                             'conv4_block18_2_conv[0][0]']   
                                                                                                  
 conv4_block19_0_bn (BatchNorma  (None, 6, 6, 832)   3328        ['conv4_block18_concat[0][0]']   
 lization)                                                                                        
                                                                                                  
 conv4_block19_0_relu (Activati  (None, 6, 6, 832)   0           ['conv4_block19_0_bn[0][0]']     
 on)                                                                                              
                                                                                                  
 conv4_block19_1_conv (Conv2D)  (None, 6, 6, 128)    106496      ['conv4_block19_0_relu[0][0]']   
                                                                                                  
 conv4_block19_1_bn (BatchNorma  (None, 6, 6, 128)   512         ['conv4_block19_1_conv[0][0]']   
 lization)                                                                                        
                                                                                                  
 conv4_block19_1_relu (Activati  (None, 6, 6, 128)   0           ['conv4_block19_1_bn[0][0]']     
 on)                                                                                              
                                                                                                  
 conv4_block19_2_conv (Conv2D)  (None, 6, 6, 32)     36864       ['conv4_block19_1_relu[0][0]']   
                                                                                                  
 conv4_block19_concat (Concaten  (None, 6, 6, 864)   0           ['conv4_block18_concat[0][0]',   
 ate)                                                             'conv4_block19_2_conv[0][0]']   
                                                                                                  
 conv4_block20_0_bn (BatchNorma  (None, 6, 6, 864)   3456        ['conv4_block19_concat[0][0]']   
 lization)                                                                                        
                                                                                                  
 conv4_block20_0_relu (Activati  (None, 6, 6, 864)   0           ['conv4_block20_0_bn[0][0]']     
 on)                                                                                              
                                                                                                  
 conv4_block20_1_conv (Conv2D)  (None, 6, 6, 128)    110592      ['conv4_block20_0_relu[0][0]']   
                                                                                                  
 conv4_block20_1_bn (BatchNorma  (None, 6, 6, 128)   512         ['conv4_block20_1_conv[0][0]']   
 lization)                                                                                        
                                                                                                  
 conv4_block20_1_relu (Activati  (None, 6, 6, 128)   0           ['conv4_block20_1_bn[0][0]']     
 on)                                                                                              
                                                                                                  
 conv4_block20_2_conv (Conv2D)  (None, 6, 6, 32)     36864       ['conv4_block20_1_relu[0][0]']   
                                                                                                  
 conv4_block20_concat (Concaten  (None, 6, 6, 896)   0           ['conv4_block19_concat[0][0]',   
 ate)                                                             'conv4_block20_2_conv[0][0]']   
                                                                                                  
 conv4_block21_0_bn (BatchNorma  (None, 6, 6, 896)   3584        ['conv4_block20_concat[0][0]']   
 lization)                                                                                        
                                                                                                  
 conv4_block21_0_relu (Activati  (None, 6, 6, 896)   0           ['conv4_block21_0_bn[0][0]']     
 on)                                                                                              
                                                                                                  
 conv4_block21_1_conv (Conv2D)  (None, 6, 6, 128)    114688      ['conv4_block21_0_relu[0][0]']   
                                                                                                  
 conv4_block21_1_bn (BatchNorma  (None, 6, 6, 128)   512         ['conv4_block21_1_conv[0][0]']   
 lization)                                                                                        
                                                                                                  
 conv4_block21_1_relu (Activati  (None, 6, 6, 128)   0           ['conv4_block21_1_bn[0][0]']     
 on)                                                                                              
                                                                                                  
 conv4_block21_2_conv (Conv2D)  (None, 6, 6, 32)     36864       ['conv4_block21_1_relu[0][0]']   
                                                                                                  
 conv4_block21_concat (Concaten  (None, 6, 6, 928)   0           ['conv4_block20_concat[0][0]',   
 ate)                                                             'conv4_block21_2_conv[0][0]']   
                                                                                                  
 conv4_block22_0_bn (BatchNorma  (None, 6, 6, 928)   3712        ['conv4_block21_concat[0][0]']   
 lization)                                                                                        
                                                                                                  
 conv4_block22_0_relu (Activati  (None, 6, 6, 928)   0           ['conv4_block22_0_bn[0][0]']     
 on)                                                                                              
                                                                                                  
 conv4_block22_1_conv (Conv2D)  (None, 6, 6, 128)    118784      ['conv4_block22_0_relu[0][0]']   
                                                                                                  
 conv4_block22_1_bn (BatchNorma  (None, 6, 6, 128)   512         ['conv4_block22_1_conv[0][0]']   
 lization)                                                                                        
                                                                                                  
 conv4_block22_1_relu (Activati  (None, 6, 6, 128)   0           ['conv4_block22_1_bn[0][0]']     
 on)                                                                                              
                                                                                                  
 conv4_block22_2_conv (Conv2D)  (None, 6, 6, 32)     36864       ['conv4_block22_1_relu[0][0]']   
                                                                                                  
 conv4_block22_concat (Concaten  (None, 6, 6, 960)   0           ['conv4_block21_concat[0][0]',   
 ate)                                                             'conv4_block22_2_conv[0][0]']   
                                                                                                  
 conv4_block23_0_bn (BatchNorma  (None, 6, 6, 960)   3840        ['conv4_block22_concat[0][0]']   
 lization)                                                                                        
                                                                                                  
 conv4_block23_0_relu (Activati  (None, 6, 6, 960)   0           ['conv4_block23_0_bn[0][0]']     
 on)                                                                                              
                                                                                                  
 conv4_block23_1_conv (Conv2D)  (None, 6, 6, 128)    122880      ['conv4_block23_0_relu[0][0]']   
                                                                                                  
 conv4_block23_1_bn (BatchNorma  (None, 6, 6, 128)   512         ['conv4_block23_1_conv[0][0]']   
 lization)                                                                                        
                                                                                                  
 conv4_block23_1_relu (Activati  (None, 6, 6, 128)   0           ['conv4_block23_1_bn[0][0]']     
 on)                                                                                              
                                                                                                  
 conv4_block23_2_conv (Conv2D)  (None, 6, 6, 32)     36864       ['conv4_block23_1_relu[0][0]']   
                                                                                                  
 conv4_block23_concat (Concaten  (None, 6, 6, 992)   0           ['conv4_block22_concat[0][0]',   
 ate)                                                             'conv4_block23_2_conv[0][0]']   
                                                                                                  
 conv4_block24_0_bn (BatchNorma  (None, 6, 6, 992)   3968        ['conv4_block23_concat[0][0]']   
 lization)                                                                                        
                                                                                                  
 conv4_block24_0_relu (Activati  (None, 6, 6, 992)   0           ['conv4_block24_0_bn[0][0]']     
 on)                                                                                              
                                                                                                  
 conv4_block24_1_conv (Conv2D)  (None, 6, 6, 128)    126976      ['conv4_block24_0_relu[0][0]']   
                                                                                                  
 conv4_block24_1_bn (BatchNorma  (None, 6, 6, 128)   512         ['conv4_block24_1_conv[0][0]']   
 lization)                                                                                        
                                                                                                  
 conv4_block24_1_relu (Activati  (None, 6, 6, 128)   0           ['conv4_block24_1_bn[0][0]']     
 on)                                                                                              
                                                                                                  
 conv4_block24_2_conv (Conv2D)  (None, 6, 6, 32)     36864       ['conv4_block24_1_relu[0][0]']   
                                                                                                  
 conv4_block24_concat (Concaten  (None, 6, 6, 1024)  0           ['conv4_block23_concat[0][0]',   
 ate)                                                             'conv4_block24_2_conv[0][0]']   
                                                                                                  
 pool4_bn (BatchNormalization)  (None, 6, 6, 1024)   4096        ['conv4_block24_concat[0][0]']   
                                                                                                  
 pool4_relu (Activation)        (None, 6, 6, 1024)   0           ['pool4_bn[0][0]']               
                                                                                                  
 pool4_conv (Conv2D)            (None, 6, 6, 512)    524288      ['pool4_relu[0][0]']             
                                                                                                  
 pool4_pool (AveragePooling2D)  (None, 3, 3, 512)    0           ['pool4_conv[0][0]']             
                                                                                                  
 conv5_block1_0_bn (BatchNormal  (None, 3, 3, 512)   2048        ['pool4_pool[0][0]']             
 ization)                                                                                         
                                                                                                  
 conv5_block1_0_relu (Activatio  (None, 3, 3, 512)   0           ['conv5_block1_0_bn[0][0]']      
 n)                                                                                               
                                                                                                  
 conv5_block1_1_conv (Conv2D)   (None, 3, 3, 128)    65536       ['conv5_block1_0_relu[0][0]']    
                                                                                                  
 conv5_block1_1_bn (BatchNormal  (None, 3, 3, 128)   512         ['conv5_block1_1_conv[0][0]']    
 ization)                                                                                         
                                                                                                  
 conv5_block1_1_relu (Activatio  (None, 3, 3, 128)   0           ['conv5_block1_1_bn[0][0]']      
 n)                                                                                               
                                                                                                  
 conv5_block1_2_conv (Conv2D)   (None, 3, 3, 32)     36864       ['conv5_block1_1_relu[0][0]']    
                                                                                                  
 conv5_block1_concat (Concatena  (None, 3, 3, 544)   0           ['pool4_pool[0][0]',             
 te)                                                              'conv5_block1_2_conv[0][0]']    
                                                                                                  
 conv5_block2_0_bn (BatchNormal  (None, 3, 3, 544)   2176        ['conv5_block1_concat[0][0]']    
 ization)                                                                                         
                                                                                                  
 conv5_block2_0_relu (Activatio  (None, 3, 3, 544)   0           ['conv5_block2_0_bn[0][0]']      
 n)                                                                                               
                                                                                                  
 conv5_block2_1_conv (Conv2D)   (None, 3, 3, 128)    69632       ['conv5_block2_0_relu[0][0]']    
                                                                                                  
 conv5_block2_1_bn (BatchNormal  (None, 3, 3, 128)   512         ['conv5_block2_1_conv[0][0]']    
 ization)                                                                                         
                                                                                                  
 conv5_block2_1_relu (Activatio  (None, 3, 3, 128)   0           ['conv5_block2_1_bn[0][0]']      
 n)                                                                                               
                                                                                                  
 conv5_block2_2_conv (Conv2D)   (None, 3, 3, 32)     36864       ['conv5_block2_1_relu[0][0]']    
                                                                                                  
 conv5_block2_concat (Concatena  (None, 3, 3, 576)   0           ['conv5_block1_concat[0][0]',    
 te)                                                              'conv5_block2_2_conv[0][0]']    
                                                                                                  
 conv5_block3_0_bn (BatchNormal  (None, 3, 3, 576)   2304        ['conv5_block2_concat[0][0]']    
 ization)                                                                                         
                                                                                                  
 conv5_block3_0_relu (Activatio  (None, 3, 3, 576)   0           ['conv5_block3_0_bn[0][0]']      
 n)                                                                                               
                                                                                                  
 conv5_block3_1_conv (Conv2D)   (None, 3, 3, 128)    73728       ['conv5_block3_0_relu[0][0]']    
                                                                                                  
 conv5_block3_1_bn (BatchNormal  (None, 3, 3, 128)   512         ['conv5_block3_1_conv[0][0]']    
 ization)                                                                                         
                                                                                                  
 conv5_block3_1_relu (Activatio  (None, 3, 3, 128)   0           ['conv5_block3_1_bn[0][0]']      
 n)                                                                                               
                                                                                                  
 conv5_block3_2_conv (Conv2D)   (None, 3, 3, 32)     36864       ['conv5_block3_1_relu[0][0]']    
                                                                                                  
 conv5_block3_concat (Concatena  (None, 3, 3, 608)   0           ['conv5_block2_concat[0][0]',    
 te)                                                              'conv5_block3_2_conv[0][0]']    
                                                                                                  
 conv5_block4_0_bn (BatchNormal  (None, 3, 3, 608)   2432        ['conv5_block3_concat[0][0]']    
 ization)                                                                                         
                                                                                                  
 conv5_block4_0_relu (Activatio  (None, 3, 3, 608)   0           ['conv5_block4_0_bn[0][0]']      
 n)                                                                                               
                                                                                                  
 conv5_block4_1_conv (Conv2D)   (None, 3, 3, 128)    77824       ['conv5_block4_0_relu[0][0]']    
                                                                                                  
 conv5_block4_1_bn (BatchNormal  (None, 3, 3, 128)   512         ['conv5_block4_1_conv[0][0]']    
 ization)                                                                                         
                                                                                                  
 conv5_block4_1_relu (Activatio  (None, 3, 3, 128)   0           ['conv5_block4_1_bn[0][0]']      
 n)                                                                                               
                                                                                                  
 conv5_block4_2_conv (Conv2D)   (None, 3, 3, 32)     36864       ['conv5_block4_1_relu[0][0]']    
                                                                                                  
 conv5_block4_concat (Concatena  (None, 3, 3, 640)   0           ['conv5_block3_concat[0][0]',    
 te)                                                              'conv5_block4_2_conv[0][0]']    
                                                                                                  
 conv5_block5_0_bn (BatchNormal  (None, 3, 3, 640)   2560        ['conv5_block4_concat[0][0]']    
 ization)                                                                                         
                                                                                                  
 conv5_block5_0_relu (Activatio  (None, 3, 3, 640)   0           ['conv5_block5_0_bn[0][0]']      
 n)                                                                                               
                                                                                                  
 conv5_block5_1_conv (Conv2D)   (None, 3, 3, 128)    81920       ['conv5_block5_0_relu[0][0]']    
                                                                                                  
 conv5_block5_1_bn (BatchNormal  (None, 3, 3, 128)   512         ['conv5_block5_1_conv[0][0]']    
 ization)                                                                                         
                                                                                                  
 conv5_block5_1_relu (Activatio  (None, 3, 3, 128)   0           ['conv5_block5_1_bn[0][0]']      
 n)                                                                                               
                                                                                                  
 conv5_block5_2_conv (Conv2D)   (None, 3, 3, 32)     36864       ['conv5_block5_1_relu[0][0]']    
                                                                                                  
 conv5_block5_concat (Concatena  (None, 3, 3, 672)   0           ['conv5_block4_concat[0][0]',    
 te)                                                              'conv5_block5_2_conv[0][0]']    
                                                                                                  
 conv5_block6_0_bn (BatchNormal  (None, 3, 3, 672)   2688        ['conv5_block5_concat[0][0]']    
 ization)                                                                                         
                                                                                                  
 conv5_block6_0_relu (Activatio  (None, 3, 3, 672)   0           ['conv5_block6_0_bn[0][0]']      
 n)                                                                                               
                                                                                                  
 conv5_block6_1_conv (Conv2D)   (None, 3, 3, 128)    86016       ['conv5_block6_0_relu[0][0]']    
                                                                                                  
 conv5_block6_1_bn (BatchNormal  (None, 3, 3, 128)   512         ['conv5_block6_1_conv[0][0]']    
 ization)                                                                                         
                                                                                                  
 conv5_block6_1_relu (Activatio  (None, 3, 3, 128)   0           ['conv5_block6_1_bn[0][0]']      
 n)                                                                                               
                                                                                                  
 conv5_block6_2_conv (Conv2D)   (None, 3, 3, 32)     36864       ['conv5_block6_1_relu[0][0]']    
                                                                                                  
 conv5_block6_concat (Concatena  (None, 3, 3, 704)   0           ['conv5_block5_concat[0][0]',    
 te)                                                              'conv5_block6_2_conv[0][0]']    
                                                                                                  
 conv5_block7_0_bn (BatchNormal  (None, 3, 3, 704)   2816        ['conv5_block6_concat[0][0]']    
 ization)                                                                                         
                                                                                                  
 conv5_block7_0_relu (Activatio  (None, 3, 3, 704)   0           ['conv5_block7_0_bn[0][0]']      
 n)                                                                                               
                                                                                                  
 conv5_block7_1_conv (Conv2D)   (None, 3, 3, 128)    90112       ['conv5_block7_0_relu[0][0]']    
                                                                                                  
 conv5_block7_1_bn (BatchNormal  (None, 3, 3, 128)   512         ['conv5_block7_1_conv[0][0]']    
 ization)                                                                                         
                                                                                                  
 conv5_block7_1_relu (Activatio  (None, 3, 3, 128)   0           ['conv5_block7_1_bn[0][0]']      
 n)                                                                                               
                                                                                                  
 conv5_block7_2_conv (Conv2D)   (None, 3, 3, 32)     36864       ['conv5_block7_1_relu[0][0]']    
                                                                                                  
 conv5_block7_concat (Concatena  (None, 3, 3, 736)   0           ['conv5_block6_concat[0][0]',    
 te)                                                              'conv5_block7_2_conv[0][0]']    
                                                                                                  
 conv5_block8_0_bn (BatchNormal  (None, 3, 3, 736)   2944        ['conv5_block7_concat[0][0]']    
 ization)                                                                                         
                                                                                                  
 conv5_block8_0_relu (Activatio  (None, 3, 3, 736)   0           ['conv5_block8_0_bn[0][0]']      
 n)                                                                                               
                                                                                                  
 conv5_block8_1_conv (Conv2D)   (None, 3, 3, 128)    94208       ['conv5_block8_0_relu[0][0]']    
                                                                                                  
 conv5_block8_1_bn (BatchNormal  (None, 3, 3, 128)   512         ['conv5_block8_1_conv[0][0]']    
 ization)                                                                                         
                                                                                                  
 conv5_block8_1_relu (Activatio  (None, 3, 3, 128)   0           ['conv5_block8_1_bn[0][0]']      
 n)                                                                                               
                                                                                                  
 conv5_block8_2_conv (Conv2D)   (None, 3, 3, 32)     36864       ['conv5_block8_1_relu[0][0]']    
                                                                                                  
 conv5_block8_concat (Concatena  (None, 3, 3, 768)   0           ['conv5_block7_concat[0][0]',    
 te)                                                              'conv5_block8_2_conv[0][0]']    
                                                                                                  
 conv5_block9_0_bn (BatchNormal  (None, 3, 3, 768)   3072        ['conv5_block8_concat[0][0]']    
 ization)                                                                                         
                                                                                                  
 conv5_block9_0_relu (Activatio  (None, 3, 3, 768)   0           ['conv5_block9_0_bn[0][0]']      
 n)                                                                                               
                                                                                                  
 conv5_block9_1_conv (Conv2D)   (None, 3, 3, 128)    98304       ['conv5_block9_0_relu[0][0]']    
                                                                                                  
 conv5_block9_1_bn (BatchNormal  (None, 3, 3, 128)   512         ['conv5_block9_1_conv[0][0]']    
 ization)                                                                                         
                                                                                                  
 conv5_block9_1_relu (Activatio  (None, 3, 3, 128)   0           ['conv5_block9_1_bn[0][0]']      
 n)                                                                                               
                                                                                                  
 conv5_block9_2_conv (Conv2D)   (None, 3, 3, 32)     36864       ['conv5_block9_1_relu[0][0]']    
                                                                                                  
 conv5_block9_concat (Concatena  (None, 3, 3, 800)   0           ['conv5_block8_concat[0][0]',    
 te)                                                              'conv5_block9_2_conv[0][0]']    
                                                                                                  
 conv5_block10_0_bn (BatchNorma  (None, 3, 3, 800)   3200        ['conv5_block9_concat[0][0]']    
 lization)                                                                                        
                                                                                                  
 conv5_block10_0_relu (Activati  (None, 3, 3, 800)   0           ['conv5_block10_0_bn[0][0]']     
 on)                                                                                              
                                                                                                  
 conv5_block10_1_conv (Conv2D)  (None, 3, 3, 128)    102400      ['conv5_block10_0_relu[0][0]']   
                                                                                                  
 conv5_block10_1_bn (BatchNorma  (None, 3, 3, 128)   512         ['conv5_block10_1_conv[0][0]']   
 lization)                                                                                        
                                                                                                  
 conv5_block10_1_relu (Activati  (None, 3, 3, 128)   0           ['conv5_block10_1_bn[0][0]']     
 on)                                                                                              
                                                                                                  
 conv5_block10_2_conv (Conv2D)  (None, 3, 3, 32)     36864       ['conv5_block10_1_relu[0][0]']   
                                                                                                  
 conv5_block10_concat (Concaten  (None, 3, 3, 832)   0           ['conv5_block9_concat[0][0]',    
 ate)                                                             'conv5_block10_2_conv[0][0]']   
                                                                                                  
 conv5_block11_0_bn (BatchNorma  (None, 3, 3, 832)   3328        ['conv5_block10_concat[0][0]']   
 lization)                                                                                        
                                                                                                  
 conv5_block11_0_relu (Activati  (None, 3, 3, 832)   0           ['conv5_block11_0_bn[0][0]']     
 on)                                                                                              
                                                                                                  
 conv5_block11_1_conv (Conv2D)  (None, 3, 3, 128)    106496      ['conv5_block11_0_relu[0][0]']   
                                                                                                  
 conv5_block11_1_bn (BatchNorma  (None, 3, 3, 128)   512         ['conv5_block11_1_conv[0][0]']   
 lization)                                                                                        
                                                                                                  
 conv5_block11_1_relu (Activati  (None, 3, 3, 128)   0           ['conv5_block11_1_bn[0][0]']     
 on)                                                                                              
                                                                                                  
 conv5_block11_2_conv (Conv2D)  (None, 3, 3, 32)     36864       ['conv5_block11_1_relu[0][0]']   
                                                                                                  
 conv5_block11_concat (Concaten  (None, 3, 3, 864)   0           ['conv5_block10_concat[0][0]',   
 ate)                                                             'conv5_block11_2_conv[0][0]']   
                                                                                                  
 conv5_block12_0_bn (BatchNorma  (None, 3, 3, 864)   3456        ['conv5_block11_concat[0][0]']   
 lization)                                                                                        
                                                                                                  
 conv5_block12_0_relu (Activati  (None, 3, 3, 864)   0           ['conv5_block12_0_bn[0][0]']     
 on)                                                                                              
                                                                                                  
 conv5_block12_1_conv (Conv2D)  (None, 3, 3, 128)    110592      ['conv5_block12_0_relu[0][0]']   
                                                                                                  
 conv5_block12_1_bn (BatchNorma  (None, 3, 3, 128)   512         ['conv5_block12_1_conv[0][0]']   
 lization)                                                                                        
                                                                                                  
 conv5_block12_1_relu (Activati  (None, 3, 3, 128)   0           ['conv5_block12_1_bn[0][0]']     
 on)                                                                                              
                                                                                                  
 conv5_block12_2_conv (Conv2D)  (None, 3, 3, 32)     36864       ['conv5_block12_1_relu[0][0]']   
                                                                                                  
 conv5_block12_concat (Concaten  (None, 3, 3, 896)   0           ['conv5_block11_concat[0][0]',   
 ate)                                                             'conv5_block12_2_conv[0][0]']   
                                                                                                  
 conv5_block13_0_bn (BatchNorma  (None, 3, 3, 896)   3584        ['conv5_block12_concat[0][0]']   
 lization)                                                                                        
                                                                                                  
 conv5_block13_0_relu (Activati  (None, 3, 3, 896)   0           ['conv5_block13_0_bn[0][0]']     
 on)                                                                                              
                                                                                                  
 conv5_block13_1_conv (Conv2D)  (None, 3, 3, 128)    114688      ['conv5_block13_0_relu[0][0]']   
                                                                                                  
 conv5_block13_1_bn (BatchNorma  (None, 3, 3, 128)   512         ['conv5_block13_1_conv[0][0]']   
 lization)                                                                                        
                                                                                                  
 conv5_block13_1_relu (Activati  (None, 3, 3, 128)   0           ['conv5_block13_1_bn[0][0]']     
 on)                                                                                              
                                                                                                  
 conv5_block13_2_conv (Conv2D)  (None, 3, 3, 32)     36864       ['conv5_block13_1_relu[0][0]']   
                                                                                                  
 conv5_block13_concat (Concaten  (None, 3, 3, 928)   0           ['conv5_block12_concat[0][0]',   
 ate)                                                             'conv5_block13_2_conv[0][0]']   
                                                                                                  
 conv5_block14_0_bn (BatchNorma  (None, 3, 3, 928)   3712        ['conv5_block13_concat[0][0]']   
 lization)                                                                                        
                                                                                                  
 conv5_block14_0_relu (Activati  (None, 3, 3, 928)   0           ['conv5_block14_0_bn[0][0]']     
 on)                                                                                              
                                                                                                  
 conv5_block14_1_conv (Conv2D)  (None, 3, 3, 128)    118784      ['conv5_block14_0_relu[0][0]']   
                                                                                                  
 conv5_block14_1_bn (BatchNorma  (None, 3, 3, 128)   512         ['conv5_block14_1_conv[0][0]']   
 lization)                                                                                        
                                                                                                  
 conv5_block14_1_relu (Activati  (None, 3, 3, 128)   0           ['conv5_block14_1_bn[0][0]']     
 on)                                                                                              
                                                                                                  
 conv5_block14_2_conv (Conv2D)  (None, 3, 3, 32)     36864       ['conv5_block14_1_relu[0][0]']   
                                                                                                  
 conv5_block14_concat (Concaten  (None, 3, 3, 960)   0           ['conv5_block13_concat[0][0]',   
 ate)                                                             'conv5_block14_2_conv[0][0]']   
                                                                                                  
 conv5_block15_0_bn (BatchNorma  (None, 3, 3, 960)   3840        ['conv5_block14_concat[0][0]']   
 lization)                                                                                        
                                                                                                  
 conv5_block15_0_relu (Activati  (None, 3, 3, 960)   0           ['conv5_block15_0_bn[0][0]']     
 on)                                                                                              
                                                                                                  
 conv5_block15_1_conv (Conv2D)  (None, 3, 3, 128)    122880      ['conv5_block15_0_relu[0][0]']   
                                                                                                  
 conv5_block15_1_bn (BatchNorma  (None, 3, 3, 128)   512         ['conv5_block15_1_conv[0][0]']   
 lization)                                                                                        
                                                                                                  
 conv5_block15_1_relu (Activati  (None, 3, 3, 128)   0           ['conv5_block15_1_bn[0][0]']     
 on)                                                                                              
                                                                                                  
 conv5_block15_2_conv (Conv2D)  (None, 3, 3, 32)     36864       ['conv5_block15_1_relu[0][0]']   
                                                                                                  
 conv5_block15_concat (Concaten  (None, 3, 3, 992)   0           ['conv5_block14_concat[0][0]',   
 ate)                                                             'conv5_block15_2_conv[0][0]']   
                                                                                                  
 conv5_block16_0_bn (BatchNorma  (None, 3, 3, 992)   3968        ['conv5_block15_concat[0][0]']   
 lization)                                                                                        
                                                                                                  
 conv5_block16_0_relu (Activati  (None, 3, 3, 992)   0           ['conv5_block16_0_bn[0][0]']     
 on)                                                                                              
                                                                                                  
 conv5_block16_1_conv (Conv2D)  (None, 3, 3, 128)    126976      ['conv5_block16_0_relu[0][0]']   
                                                                                                  
 conv5_block16_1_bn (BatchNorma  (None, 3, 3, 128)   512         ['conv5_block16_1_conv[0][0]']   
 lization)                                                                                        
                                                                                                  
 conv5_block16_1_relu (Activati  (None, 3, 3, 128)   0           ['conv5_block16_1_bn[0][0]']     
 on)                                                                                              
                                                                                                  
 conv5_block16_2_conv (Conv2D)  (None, 3, 3, 32)     36864       ['conv5_block16_1_relu[0][0]']   
                                                                                                  
 conv5_block16_concat (Concaten  (None, 3, 3, 1024)  0           ['conv5_block15_concat[0][0]',   
 ate)                                                             'conv5_block16_2_conv[0][0]']   
                                                                                                  
 bn (BatchNormalization)        (None, 3, 3, 1024)   4096        ['conv5_block16_concat[0][0]']   
                                                                                                  
 relu (Activation)              (None, 3, 3, 1024)   0           ['bn[0][0]']                     
                                                                                                  
 global_average_pooling2d (Glob  (None, 1024)        0           ['relu[0][0]']                   
 alAveragePooling2D)                                                                              
                                                                                                  
 dense (Dense)                  (None, 12)           12300       ['global_average_pooling2d[0][0]'
                                                                 ]                                
                                                                                                  
==================================================================================================
Total params: 7,049,804
Trainable params: 6,966,156
Non-trainable params: 83,648
…
